…
59/1759 [==============================] - 4s 2ms/step - loss: 0.4911 - val_loss: 0.4826
[1 2 2 ... 0 2 0] [1 1 2 ... 2 2 1]
(17501,) (17501, 3)
[get_model] Running ultrasample:wfo
[get_model] Finished running ultrasample:wfo
Model: "model"
_________________________________________________________________
Layer (type)                 Output Shape              Param #   
=================================================================
input_1 (InputLayer)         [(None, 13)]              0         
_________________________________________________________________
layer_0 (Dense)              (None, 10)                140       
_________________________________________________________________
layer_1 (Dense)              (None, 7)                 77        
_________________________________________________________________
encoded (Dense)              (None, 5)                 40        
_________________________________________________________________
layer_2 (Dense)              (None, 7)                 42        
_________________________________________________________________
layer_3 (Dense)              (None, 10)                80        
_________________________________________________________________
decoded (Dense)              (None, 13)                143       
=================================================================
Total params: 522
Trainable params: 522
Non-trainable params: 0
_________________________________________________________________
[get_model] Fitting autoencoder
Epoch 1/500
   1/2221 [..............................] - ETA: 11:53 - loss: 1.1503  26/2221 
…
