…
522/522 [==============================] - 1s 2ms/step - loss: 0.5576
[get_model] Running smooth
[get_model] Finished running smooth
[get_model] Running ultrasample:wfo
[get_model] Finished running ultrasample:wfo
Model: "model"
_________________________________________________________________
Layer (type)                 Output Shape              Param #   
=================================================================
input_1 (InputLayer)         [(None, 13)]              0         
_________________________________________________________________
layer_0 (Dense)              (None, 10)                140       
_________________________________________________________________
layer_1 (Dense)              (None, 7)                 77        
_________________________________________________________________
encoded (Dense)              (None, 5)                 40        
_________________________________________________________________
layer_2 (Dense)              (None, 7)                 42        
_________________________________________________________________
layer_3 (Dense)              (None, 10)                80        
_________________________________________________________________
decoded (Dense)              (None, 13)                143       
=================================================================
Total params: 522
Trainable params: 522
Non-trainable params: 0
_________________________________________________________________
[get_model] Fitting autoencoder
Epoch 1/500
   1/1294 [..............................] - ETA: 5:55 - loss: 0.1777  25/1294 [.
…
