…
s: 0.6069457/457 [==============================] - 1s 1ms/step - loss: 0.6068
[get_model] Running ultrasample:wfo
[get_model] Finished running ultrasample:wfo
Model: "model"
_________________________________________________________________
Layer (type)                 Output Shape              Param #   
=================================================================
input_1 (InputLayer)         [(None, 12)]              0         
_________________________________________________________________
layer_0 (Dense)              (None, 10)                130       
_________________________________________________________________
layer_1 (Dense)              (None, 7)                 77        
_________________________________________________________________
encoded (Dense)              (None, 5)                 40        
_________________________________________________________________
layer_2 (Dense)              (None, 7)                 42        
_________________________________________________________________
layer_3 (Dense)              (None, 10)                80        
_________________________________________________________________
decoded (Dense)              (None, 12)                132       
=================================================================
Total params: 501
Trainable params: 501
Non-trainable params: 0
_________________________________________________________________
[get_model] Fitting autoencoder
Epoch 1/500
   1/1506 [..............................] - ETA: 5:38 - loss: 0.7878  31/1506 [.
…
