…
 0.5991 - val_loss: 1.4160
[[0. 0. 1.]
 [0. 0. 1.]
 [0. 0. 1.]
 ...
 [0. 1. 0.]
 [1. 0. 0.]
 [0. 0. 1.]] [2 2 2 ... 2 0 2]
(17501, 3) (17501, 3)
[get_model] Running ultrasample:wfo
[get_model] Finished running ultrasample:wfo
Model: "model"
_________________________________________________________________
Layer (type)                 Output Shape              Param #   
=================================================================
input_1 (InputLayer)         [(None, 12)]              0         
_________________________________________________________________
layer_0 (Dense)              (None, 10)                130       
_________________________________________________________________
layer_1 (Dense)              (None, 7)                 77        
_________________________________________________________________
encoded (Dense)              (None, 5)                 40        
_________________________________________________________________
layer_2 (Dense)              (None, 7)                 42        
_________________________________________________________________
layer_3 (Dense)              (None, 10)                80        
_________________________________________________________________
decoded (Dense)              (None, 12)                132       
=================================================================
Total params: 501
Trainable params: 501
Non-trainable params: 0
_________________________________________________________________
[get_model] Fitting autoencoder
Epoch 1/500
   1/2229 [..............................] - ETA: 10:50 - loss: 1.2578  23/2229 
…
